model/LeNet.pkl (torch, 180871 bytes, 10 tensors)

conv1.0.weight f4 [6, 1, 5, 5]
000000 9b 9a 58 3f b6 2e f1 bd 09 76 69 bf 08 d5 55 bf
       0.8461091 -0.117764875 -0.9119573 -0.83528185
000010 ae d8 cf 3c c9 2f 7a 3e 21 82 70 bf bf b0 d6 bf
       0.025371876 0.24432291 -0.9394856 -1.6772689
000020 64 da 93 bf 24 8f d9 be a6 ec 11 3e 27 ad 88 bf
       -1.1551023 -0.4249202 0.1425043 -1.0677842
000030 16 53 bb bf 4d bb 97 bf 05 83 6a 3d 87 39 30 3e
       -1.4634731 -1.1854035 0.057253856 0.17209445
000040 93 15 7e bf a8 5e 89 bf 4b e0 16 bf 5e ff b0 3e
       -0.9925167 -1.0732012 -0.58935994 0.3456983
000050 18 b6 1c 3f 39 b9 18 be a1 df 0c be 29 58 6c 3e
       0.61215353 -0.14914407 -0.13757183 0.23080505
000060 8b 83 32 3f 69 42 d9 3e d5 52 02 3f 4e d3 9e 3e
       0.6973197 0.4243348 0.5090764 0.31020588
000070 87 76 5d 3e 1e 7f 89 3f 11 70 89 be e2 bb 2b bf
       0.21627246 1.0741918 -0.26843312 -0.6708356
000080 20 12 91 bf c4 69 3b bf 75 8a 3b 3f c0 48 81 be
       -1.1333656 -0.7320826 0.73258144 -0.25250816
000090 7d 85 57 bf 9e bb 01 c0 9f dc 44 bf 42 5c 89 3f
       -0.8418806 -2.0270762 -0.7689914 1.073128
0000a0 0f 59 42 be 58 5d 98 bf 8e 32 ad bf 3d 1d 47 be
       -0.18979286 -1.1903486 -1.3531053 -0.19444747
0000b0 1e 5b 82 3f 8f 5b 87 3d 7a c8 55 bf c3 62 70 be
       1.0184057 0.0660926 -0.8350903 -0.23475175
0000c0 44 21 f7 3e a3 b1 1c 3f 4e 65 21 3f 8d 06 4b 3f
       0.48267567 0.6120855 0.63045204 0.7930687
0000d0 9d b3 6d 3f 6b ce 40 3f 0c 36 bd 3e 70 84 36 bf
       0.92852193 0.7531497 0.36955297 -0.71295834
0000e0 7d e9 42 bf 84 b9 63 bf b5 c4 1a bf 8f 8f 83 bf
       -0.76137525 -0.8895495 -0.604564 -1.0278186
0000f0 d8 ed ba bf 41 a6 05 c0 1d 90 f8 bf 33 8f 9f bf
       -1.4603834 -2.0882723 -1.941898 -1.2465576
000100 45 b8 09 bf b7 f8 fa be 60 85 0e be d0 32 95 3d
       -0.537968 -0.4901788 -0.13918066 0.07285082
000110 96 cc 81 bc 4b 51 51 3e 75 d2 48 3f 23 cd 5d 3f
       -0.015844624 0.20441167 0.7844613 0.8664114
000120 c1 fd 3e 3f 12 f0 0c 3f 15 2e 6e 3e 8d 6d 45 bf
       0.7460595 0.5505382 0.23259766 -0.77120286
000130 2f ee fe be a2 be 00 bf c5 27 d2 be 34 48 34 3e
       -0.49791095 -0.5029088 -0.41045967 0.17605668
000140 aa c8 88 be a1 5f 24 3f 3a b9 1c 3f e6 43 d2 3e
       -0.26715595 0.6420842 0.61220133 0.41067427
000150 9c bc 14 3f 2c 3c 93 3e 20 0f 77 3f a5 fa 0d 40
       0.58100295 0.28756845 0.96507454 2.2184231
000160 c4 00 e9 3f 6c 38 ae 3f 50 c4 fb be ad 97 2d 3f
       1.8203359 1.3610969 -0.49173212 0.67809564
000170 1f 2e 0b 40 7d f6 89 3f b5 10 73 3d f4 eb 0b bf
       2.17469 1.0778347 0.059342105 -0.5465691
000180 a9 ac 09 3d 3b 0f 55 3f 47 ec 2f bd bc 29 c9 bd
       0.033611927 0.83226365 -0.04294994 -0.09822413
000190 db ba c7 be a7 12 69 bf bf 61 29 bf 08 21 39 be
       -0.39009747 -0.91044086 -0.66164774 -0.18079007
0001a0 95 0a a9 3e 60 79 90 bf 28 5e 84 bf 1f 0a 88 bf
       0.33015886 -1.1287041 -1.0341234 -1.0628089
0001b0 ef 15 c7 bd e9 57 a6 3e d5 84 5b bf e0 5e 51 bf
       -0.097209804 0.32488945 -0.8574956 -0.8178539
0001c0 bc af 2a bf b4 b4 a7 3e ae 0d 22 3f 70 c2 d7 bc
       -0.666744 0.32755053 0.63302124 -0.026337832
0001d0 69 ca ff bd 75 22 2a 3e ee 8e e0 3e 1d 0b a1 3e
       -0.124897785 0.16614707 0.43859047 0.3145379
0001e0 49 f8 96 3f 66 41 4e 3f 63 33 7e 3f 5e 88 85 3f
       1.1794521 0.8056854 0.9929716 1.0432241
0001f0 a4 38 68 3e 49 3d a8 be 10 79 1a be 0b cc 4d be
       0.22677857 -0.32859257 -0.15085244 -0.20097367
000200 81 12 0b 3e 1f f8 a6 be bf c1 89 3f a7 52 88 3f
       0.13581277 -0.32611176 1.0762252 1.0650223
000210 57 b7 37 3f 69 04 49 3f fe 11 fc 3e 7d 57 76 3f
       0.7176413 0.78522354 0.49232477 0.96227247
000220 bd 05 b7 3f 24 c5 08 40 f9 df 92 3f 0d c9 51 3f
       1.4298626 2.1370325 1.1474601 0.81947404
000230 7a 48 9b bd b7 9f a5 3e 1f 90 9c 3e 41 a3 ac 3e
       -0.07582183 0.32348415 0.30578706 0.33718303
000240 75 cd f2 3e 43 c1 86 bf ce 21 4b be 96 36 9b be
       0.47422376 -1.0527729 -0.19837114 -0.30315083
000250 12 0e 7d bf 1a 75 68 bf
       -0.98849595 -0.9080368

conv1.0.bias f4 [6]
000000 a2 71 35 3f 74 25 5c bc 12 7c a3 bb 3f 04 6a bf
       0.70876515 -0.013436664 -0.0049891556 -0.9141273
000010 1d 91 9b be 57 ae 68 bf
       -0.3038415 -0.9089102

conv2.0.weight f4 [16, 6, 5, 5]
000000 b7 5b 76 be 91 ef d2 be 0b 5a d1 be 11 be d4 be
       -0.24058424 -0.411984 -0.4088901 -0.4155126
000010 45 fa e0 be fe 32 04 be 10 49 63 be 64 6d b6 be
       -0.4394094 -0.12910077 -0.2219584 -0.35630333
000020 37 a6 48 be d5 d0 1f be 11 c5 bc 3e 19 34 0b 3f
       -0.19594656 -0.15607007 0.368691 0.5437637
000030 ba dc 0c 3f e5 0d ca 3e 7d fa ba 3e 49 76 e7 3e
       0.550243 0.39463726 0.36519232 0.45207432
000040 34 5e a7 3e c5 2f 41 3e 59 fb 32 bd e9 d4 c0 3e
       0.3268906 0.18865879 -0.043696735 0.37662438
000050 f8 7a 00 3e 79 da 32 be d6 72 ba bd e7 47 a1 be
       0.12546909 -0.17466153 -0.091039345 -0.3150017
000060 7b 63 ab 3e 7f f6 30 be ba e4 d4 be 43 8d 05 bf
       0.33474335 -0.17281531 -0.41580755 -0.52168673
000070 ae 98 58 bf 26 04 4d bf 97 60 90 be ea b7 bb be
       -0.8460797 -0.80084455 -0.28198692 -0.36663753
000080 e3 43 52 be 3a 83 1f be a7 f6 c3 be 96 14 93 3e
       -0.20533709 -0.15577403 -0.38274118 0.28726643
000090 aa 94 02 3f 8d 81 1b 3f 86 36 e7 3e 21 6e b0 b9
       0.51008093 0.60744554 0.45158786 -0.00033651388
0000a0 c3 a1 17 3e e7 de 35 3e 93 fb 22 3e b2 7d 01 be
       0.14807801 0.17760812 0.1591628 -0.12645605
0000b0 3c 34 7b be 09 f0 fa bc 8f 25 0d be 78 e5 ab bd
       -0.24531645 -0.030632036 -0.13783859 -0.08393377
0000c0 13 56 88 be 9f fd b4 bd 63 38 8c be 07 a4 8b be
       -0.2662817 -0.08837437 -0.2738677 -0.2727358
0000d0 a0 64 96 be 6e 80 ff be 45 6e 05 bf ed b2 71 bd
       -0.29373646 -0.49902672 -0.5212138 -0.059008528
0000e0 55 b0 0d 3e 31 2e 43 3e b5 ab bf 3e 9e 6b e1 3d
       0.13836797 0.1906059 0.3743569 0.110068545
0000f0 79 7a 49 3f cc d5 a6 3f 6a bb b7 3f a9 63 8e 3f
       0.78702503 1.3033996 1.4354069 1.1124164
000100 25 73 3c 3f c6 2f 38 3f be dc 2a 3f d3 61 d2 3e
       0.73613197 0.71947896 0.66743076 0.4109026
000110 84 4b 7d bc 55 e9 dc 3e 33 7b ff 3c 2a c2 6b be
       -0.015459899 0.43146768 0.031186676 -0.23023286
000120 89 8f cd be 40 0c 8d be 80 ef 35 3e 32 b8 9d 3d
       -0.4014857 -0.27548409 0.17767143 0.07701148
000130 a3 ca 45 3e ee 22 5f 3e a3 ab 8a 3e c5 09 13 3e
       0.19315581 0.21790668 0.27084073 0.14359196
000140 e9 0e 46 bd e8 57 e3 bd b6 72 14 bd b5 f2 81 bd
       -0.048354063 -0.11100751 -0.03624221 -0.06345121
000150 2b e9 82 be 50 9e b1 bd cf 6a 8a be 27 b8 c1 be
       -0.25568518 -0.08672774 -0.27034613 -0.3783581
000160 34 92 f7 be 95 7e 11 bf b1 60 80 be dd 0e 8c bd
       -0.48353732 -0.56833774 -0.2507377 -0.068387724
000170 f2 41 82 be bb d0 81 be bf e4 d6 be 8e e0 80 bc
       -0.25440937 -0.2535456 -0.41971394 -0.015732076
000180 87 96 a1 bd b8 e0 9d bd 34 c4 66 be 7f 79 a9 be
       -0.07890039 -0.07708877 -0.22535783 -0.33100507
000190 dc fd 6d bc d0 1d 08 be d4 46 80 bd 26 62 8e be
       -0.014525857 -0.13292623 -0.062635094 -0.27809256
0001a0 6c 79 47 be dc df c9 bd 8b ed f8 be fa 2e ec be
       -0.19479913 -0.09857151 -0.4861873 -0.4612959
0001b0 78 76 40 bf 49 fb 37 bf 28 c7 37 3d b8 89 8b 3e
       -0.7518077 -0.71867806 0.044867665 0.2725351
0001c0 f4 cb c2 3e 96 2d 85 3e b0 7d 6b 3e 7a c6 ab 3e
       0.3804623 0.26011342 0.22997165 0.33549863
0001d0 c6 30 0a 3f c2 78 ba 3e bf b1 8d 3e d7 40 14 be
       0.5398067 0.36420256 0.27674672 -0.1447786
0001e0 c4 e3 eb 3c f1 4d 3d 3e e7 7f 99 3a 6a 05 95 be
       0.02879513 0.18486764 0.0011711092 -0.29105693
0001f0 e3 f4 a0 be ce bb 09 be ed 15 22 3e 4d 6a bb 3e
       -0.31436834 -0.13450548 0.15828677 0.3660454
000200 be a3 e0 3e 8a 7e c5 3e 03 7e 9f 3d 94 1a 53 3d
       0.43874925 0.38573104 0.07787707 0.05153902
000210 2e 5d 3b 3d e8 b2 17 bd a4 64 50 bd 2f 5a 9f be
       0.04574316 -0.037035853 -0.05087723 -0.31123492
000220 24 75 a2 be 64 10 19 bf a2 a1 a0 be e8 a5 c4 be
       -0.31729996 -0.59790635 -0.31373316 -0.38407826
000230 b3 59 91 be 0f 95 a7 be ac d1 fc bd 7c ba 88 be
       -0.28388748 -0.3273091 -0.12344679 -0.26704776
000240 2d e2 95 be 1f dc 0d bd 96 d0 c7 bc 86 1f 9d 3b
       -0.2927412 -0.034633752 -0.024391454 0.0047950177
000250 1b cd 0a be a9 7e db bd e1 bf 84 3e 74 cc 0d 3e
       -0.13554804 -0.10717518 0.25927642 0.13847524
000260 2c d2 21 3e 2f 91 16 3e 38 6f 13 bc cf fa 2b 3e
       0.1580283 0.1470382 -0.008998685 0.16794895
000270 c1 c5 9f bd 94 ad 36 3c 2c ea 7e 3d 54 23 41 bd
       -0.078013904 0.011149783 0.062235042 -0.047152832
000280 7c bc 88 ba ef c4 0c bf ff 56 b0 be f8 5a 9a be
       -0.0010432149 -0.54987997 -0.34441373 -0.3014753
000290 d7 d9 94 be 0e 7c 99 be 17 9e cb be 07 f3 1b bf
       -0.2907245 -0.2997746 -0.3976905 -0.60917705
0002a0 7e 88 1d bf 7e 31 12 bf 8a 89 c3 be 54 32 90 bd
       -0.61536396 -0.5710677 -0.3819087 -0.07040849
0002b0 bb 0f c9 be 97 74 5b be e7 ff 8d be 21 a0 b2 3d
       -0.39269814 -0.21431194 -0.277343 0.087219484
0002c0 49 87 e5 3c 14 6a ca 3d 29 66 e6 bc 2a 55 c3 bd
       0.02801861 0.09883514 -0.028124886 -0.09537728
0002d0 df ba ea 3e 6a dc cf 3d cd 9f d4 3d c5 16 4b 3d
       0.45845696 0.101494625 0.10382042 0.04958226
0002e0 eb c8 3b 3e eb b7 3c 3f 1c 4b 80 bd 60 85 9d be
       0.18338363 0.73718137 -0.06264326 -0.3076582
0002f0 3b 67 6c be b5 a6 13 be e4 d2 02 3f 38 4e ce bd
       -0.23086254 -0.14419062 0.51103044 -0.10073513
000300 da d3 bd be dc 56 0a bf ce d8 11 bf 89 20 a1 bd
       -0.37075692 -0.54038787 -0.5697144 -0.07867534
000310 0c 42 0d be e3 3d 4e be f0 56 d2 bc a2 dd 2d 3d
       -0.13794726 -0.20140795 -0.02567622 0.042447694
000320 46 68 89 3e ca 2b 69 3e fe 02 07 3d 56 0e 21 be
       0.26837367 0.2277061 0.032961838 -0.15728125
000330 ae 41 be bd 84 f8 d2 3e 2a 4f a5 3e 1a ff 20 be
       -0.09289871 0.41205227 0.3228696 -0.15722314
000340 8b b8 0a 3e 85 f6 b6 3e 00 d8 06 3f b9 24 91 be
       0.1354696 0.35734954 0.5267334 -0.2834833
000350 8c 8d 90 be ce 03 82 be f9 55 12 3d b1 de dc 3d
       -0.28232992 -0.25393528 0.03572652 0.107846625
000360 fe 0e e6 be 2b c9 2e bf 5e a2 17 bf 29 a9 5a be
       -0.44933313 -0.6827571 -0.5923213 -0.21353592
000370 3a 19 b9 be 60 d7 11 be 87 6f b5 be 6a e5 51 be
       -0.3615206 -0.14242315 -0.3543665 -0.20497671
000380 20 65 bb 3d 48 31 64 be 6c e5 0e bd d1 c4 b5 bd
       0.091501474 -0.22284424 -0.034886762 -0.088754304
000390 a3 05 b2 bd 9d 0c c1 bd f8 df 42 bd 42 32 0c 3e
       -0.08692481 -0.09426234 -0.047576874 0.13691047
0003a0 5e 51 e7 bb 4e de c2 3d 28 e8 ba bd 6a 7e 48 3e
       -0.0070592603 0.095150575 -0.091263115 0.19579473
0003b0 ea c4 a1 3e da 22 ac 3e 36 9b 83 3e 0c f6 3f 3e
       0.31595546 0.3362034 0.25704354 0.18746203
0003c0 b4 7a 81 3e 79 d1 5d 3e 53 ba 8c 3e d7 81 ee 3e
       0.25288928 0.21661939 0.27485904 0.46583435
0003d0 f9 d6 6f 3d b8 dc 7a 3e de 9f 39 3e 3d 06 10 3e
       0.058554623 0.2449826 0.1812739 0.1406488
0003e0 7e 3e 57 3d 12 2f 40 bc 30 8f a1 3d c1 44 87 3e
       0.05254983 -0.011729972 0.07888639 0.26419643
0003f0 49 7b 73 3e 1a 3e 65 3e e9 07 1f 3d 95 8f 11 3d
       0.23777498 0.22386971 0.038825903 0.03553732

conv2.0.bias f4 [16]
000000 d8 c7 70 bd f8 4a ab bc 3d 24 03 bd e8 0d d6 ba
       -0.058784336 -0.020909771 -0.03201698 -0.0016331049
000010 9e 3c bd bd 9f 80 2d be 6e c6 ad bd 48 8c 32 be
       -0.092400774 -0.16943596 -0.08485113 -0.17436326
000020 b8 cb fc bd 98 6d 95 3d 17 4e f5 bd bf 18 08 bd
       -0.12343544 0.07296294 -0.11977785 -0.033226725
000030 9e 64 f9 3c 51 d2 7a 3d ed 45 38 bd fe 1e 18 be
       0.030443486 0.06123573 -0.04498856 -0.14855573

fc.1.weight f4 [120, 256]
000000 72 35 44 be d0 17 8d be 05 0b 90 3e a0 81 a8 3d
       -0.19161013 -0.2755723 0.28133407 0.08227849
000010 6d 69 6a 3d 6a d4 66 3d 3d 86 c2 3e 45 55 dc 3e
       0.057229448 0.056354918 0.3799304 0.43033805
000020 17 97 ea 3d a7 28 47 3e 74 a7 39 be 9d 6a 06 be
       0.11454599 0.19449101 -0.18130285 -0.13126607
000030 bd e3 7d bf e3 a1 1a bf cb 22 35 bf 32 06 8b 3d
       -0.99175626 -0.6040327 -0.70756215 0.06788291
000040 62 69 a0 3c c6 e6 cd 3d 62 77 82 bd 7c 1e 9e bc
       0.0195815 0.10053782 -0.06370427 -0.019301645
000050 e5 11 26 be 50 b7 47 bb c5 08 1e 3d 7b fb 45 be
       -0.16217764 -0.0030474253 0.038582582 -0.19334213
000060 57 25 de be 24 ea 20 bd a6 71 ad bd 6c e9 b6 3d
       -0.43387863 -0.039285794 -0.08468942 0.089312404
000070 72 f7 a4 3e 1f c1 a2 3e 3e c5 60 3e b1 70 07 bd
       0.32220036 0.31787965 0.21950242 -0.033066455
000080 13 e6 23 3d f7 64 28 bd 90 34 ca bd dc ae 09 3e
       0.040014338 -0.041111913 -0.09873307 0.1344561
000090 ee 3b a8 be 78 8d 17 3d e4 ff 14 bf 1b 37 ee 3b
       -0.32858223 0.03700015 -0.5820296 0.0072697527
0000a0 d7 e5 63 bd 25 44 03 be 43 e6 6f be bd 29 a4 3e
       -0.055639114 -0.12818964 -0.23427682 0.32063094
0000b0 19 87 74 3e 36 41 19 3f d8 ca 2d 3f 68 5b b4 3e
       0.2387966 0.5986513 0.6788764 0.35225987
0000c0 4c c3 1e be 7b fb 2f be f1 41 02 be 38 a7 34 be
       -0.15504187 -0.17185776 -0.12720467 -0.17641914
0000d0 05 98 83 be 4d 26 40 be 13 e8 4b be dc cc 4f be
       -0.2570192 -0.1876461 -0.19912748 -0.20292991
0000e0 dc 1c 59 3e 47 cc 22 bd 27 f1 a6 3d 6b cc b5 bd
       0.21202415 -0.039745595 0.08151465 -0.0887688
0000f0 71 42 04 3f bb 19 31 3e 54 6d ee 3d 48 88 d9 3d
       0.5166388 0.17294972 0.116419464 0.10621697
000100 83 3b 8f 3e cd 40 db be 76 57 f4 be 9b 38 ab bf
       0.2797509 -0.42822877 -0.47722977 -1.337665
000110 8a 92 be 3d af 83 9c be 1f 8f 8f be 12 2b dc be
       0.09305294 -0.30569217 -0.2803888 -0.4300161
000120 e9 ba 10 3e a2 87 6e 3e 22 02 e3 be cc 42 15 bf
       0.141338 0.23293927 -0.44337565 -0.5830505
000130 39 ca db 3e a0 0f 9f 3c 68 62 0e bf e7 3d cf 3e
       0.4292772 0.01941663 -0.55618906 0.40476915
000140 71 bc 2c 3c d9 ab 7c be f8 d4 2c be 66 21 a5 be
       0.010542975 -0.2467493 -0.16878116 -0.32252043
000150 29 79 27 3d 75 b5 c9 bd b0 a5 14 bf 6e 05 2c bc
       0.04088703 -0.09849063 -0.5806532 -0.010499341
000160 b9 f9 0e 3e 4f 5c 38 3e d4 6b 11 bf 89 b2 b7 3e
       0.13962449 0.18003963 -0.5680516 0.358784
000170 3f e5 9e bd 71 a0 c1 be 9f eb cb be fc 83 87 bd
       -0.07758569 -0.3781772 -0.39828202 -0.06616971
000180 2c 8c 68 3c 85 ac 55 be 0d f2 54 3c da 46 44 3d
       0.014193576 -0.20866592 0.0129971625 0.04791913
000190 91 00 a3 be 2e cc a9 3d 89 41 27 3e cc a1 ee 3c
       -0.3183637 0.08290897 0.16333593 0.029129885
0001a0 64 30 d9 be ec 13 9c be a4 79 30 be fc c1 83 3d
       -0.42419732 -0.3048395 -0.17233902 0.06433484
0001b0 6e 7b a5 3e 22 b8 1f 3f eb e2 34 3f 1a 67 48 3e
       0.32320732 0.6239034 0.7065875 0.1957058
0001c0 fe 33 af 3e 77 3c 99 3d f4 0b b4 be 86 10 86 3d
       0.34219354 0.07482236 -0.3516537 0.0654612
0001d0 16 31 27 be 17 a2 ff bd f7 43 da be 0c 9c df be
       -0.16327319 -0.12482088 -0.42629978 -0.43673742
0001e0 fc 8f 8c 3d d9 e0 14 3e b6 e9 a1 be ed 48 03 bf
       0.068634 0.14538898 -0.3162362 -0.5128315
0001f0 c9 b0 8b 3e 6d 46 5f 3e a7 bf 80 3b fc 7c 88 3e
       0.27283314 0.21804209 0.0039290967 0.26657856
000200 29 97 da 3d 43 90 84 be 21 24 9c bd 80 44 21 be
       0.10673363 -0.25891313 -0.076240785 -0.15748787
000210 3a ea 52 be f7 a9 f5 be 3c 83 62 bd 7d c4 21 be
       -0.20597163 -0.47981235 -0.055300936 -0.1579761
000220 e4 f3 59 3e 88 93 96 bd 07 f9 0c ba 64 af 16 3e
       0.21284443 -0.07352358 -0.0005377684 0.14715344
000230 1f d7 54 be e4 ee 26 bf df a2 ca be 52 96 9c bd
       -0.20785187 -0.6520827 -0.39577386 -0.07645859
000240 78 18 87 be 3b 8a 05 be 98 f0 00 3e 65 8e 22 be
       -0.26385856 -0.13041012 0.12591779 -0.15874632
000250 5c eb 34 be 0d ca e2 3d 28 82 18 3e 35 81 95 3e
       -0.17667907 0.110736944 0.148934 0.2920014
000260 5f 6d 99 bf 8e ad fb be 76 29 d8 bd 8a 33 a9 be
       -1.1986502 -0.4915585 -0.10554783 -0.33047134
000270 4e 6f e5 be 5b 23 28 3d 4b f1 77 be c7 a3 2f be
       -0.4481148 0.041049343 -0.2421314 -0.1715232
000280 67 3c 37 bd 54 2c f8 3d de 77 72 3e 57 c2 56 3b
       -0.04473534 0.1211783 0.23678538 0.0032769644
000290 36 ba 25 3e 30 1d 08 3f eb c7 88 3e 70 f1 10 3e
       0.16184315 0.53169537 0.26715025 0.14154601
0002a0 ef 23 28 3b e9 fd 22 bd f1 74 5f be c2 21 1c be
       0.0025656184 -0.03979293 -0.21821953 -0.15247253
0002b0 55 07 e7 be 15 2b 12 3e 41 79 5c 3d 82 55 fd bc
       -0.4512278 0.14274247 0.053826574 -0.030924562
0002c0 4e d7 cc 3e 73 7d 90 3e c2 ed 1a be f7 d4 8f 3b
       0.40008014 0.2822071 -0.1512976 0.004389401
0002d0 db 9a 31 3e 1c e8 57 be 8a 2c a3 be 41 dd 8b be
       0.17344229 -0.21084636 -0.31869918 -0.2731724
0002e0 a7 56 f7 3d d8 79 18 3f 7a d5 54 be 52 be ab bd
       0.120770745 0.5956092 -0.2078456 -0.0838591
0002f0 99 cb a7 3e 49 95 04 3f f7 2d a6 3e 33 c6 80 3e
       0.3277252 0.5179029 0.32456943 0.25151214
000300 ed f1 36 3e 03 c3 b0 3e 26 72 8e bd d7 2d 37 be
       0.17865725 0.34523782 -0.06955366 -0.1788858
000310 0d 12 43 be 58 9f 52 bf 26 3c ad be bb 9d 18 be
       -0.19049855 -0.8227439 -0.33834952 -0.1490392
000320 12 1c f8 3e 7c c3 a9 3c c1 ab 2a bd f9 d5 b4 3d
       0.48458916 0.020723097 -0.041667704 0.088298745
000330 66 c5 06 3e 46 55 68 bf c5 66 8f 3e 0d e7 df 3d
       0.13161239 -0.90755117 0.28008094 0.10932741
000340 8b 9b 6f 3e a8 61 9c bc a5 f6 72 bd 9a 61 1a bd
       0.23399179 -0.019089535 -0.05931725 -0.037690736
000350 30 dd 62 be 51 05 30 3d e6 c0 27 be 0a fb 7b bd
       -0.22154689 0.04297382 -0.16382179 -0.061518706
000360 86 e3 8f bd 83 54 23 be 0c 5c 3c bc 50 16 59 bd
       -0.070258185 -0.15950207 -0.011496555 -0.052999794
000370 06 44 1f 3f a4 4c 81 3e 29 de 93 3d 02 e2 d7 3d
       0.6221317 0.25253785 0.07220108 0.105411544
000380 81 56 07 bf b6 ba 90 be f9 c7 69 3d 67 e8 7d be
       -0.5286637 -0.2826745 0.057075474 -0.24795686
000390 4c 37 c4 be 36 61 9b 3e f2 1a b3 bc 72 1d ce bd
       -0.38323438 0.30347604 -0.021863434 -0.1006421
0003a0 ca 6d 96 bf 7b ca e9 be ae 30 35 3e 05 ad 04 be
       -1.1752255 -0.45662293 0.17694351 -0.12956627
0003b0 6d 66 82 3f 42 7a 1d 3f 8d f8 bd 3e d6 a5 48 3e
       1.0187508 0.61514676 0.37103692 0.19594511
0003c0 97 b3 b0 3e 7d 6e a4 3d 04 e8 a3 bc b5 24 05 3d
       0.34512016 0.080288865 -0.020008095 0.03250571
0003d0 68 bc 10 be e4 f3 31 be b7 53 06 3e e1 83 96 be
       -0.14134371 -0.17378193 0.13117872 -0.2939749
0003e0 48 d4 9e 3e 6b c6 ac be b2 3d bf be 13 64 48 be
       0.31021333 -0.3374513 -0.37351757 -0.19569425
0003f0 78 3e 14 3e 68 3f e8 3e 04 a1 e1 3e da f4 5d bb
       0.14476955 0.45360875 0.44068158 -0.0033867867

fc.1.bias f4 [120]
000000 3b 3c 8f 3c 67 55 1a 3d 30 8c 9e 3c b1 07 83 3d
       0.017484775 0.037679102 0.019353956 0.063979514
000010 e2 57 37 bd c7 d2 45 bd b2 d1 3d bd cd 75 d8 bd
       -0.044761546 -0.048296716 -0.04634256 -0.10569344
000020 df bf b8 3d ac 84 e3 3d 78 73 d0 bd 97 6f 84 bc
       0.090209715 0.111092895 -0.10178274 -0.016166491
000030 58 0b cc 3d ea aa 8a 3d 0c e9 88 3d 80 f5 fb bd
       0.09963101 0.067708805 0.06685075 -0.12302685
000040 79 c3 cd bd 6b 11 13 bd 77 5f e8 bc 2b 9a 0a 3e
       -0.10047049 -0.035905283 -0.028365834 0.13535373
000050 d6 b8 8e 3d 4b 37 aa 3d 5a 7f be 3d 07 41 81 3d
       0.069688484 0.083113275 0.09301634 0.06311231
000060 16 57 e6 bd d1 ca 5c 3d 35 c8 17 be 01 22 65 3d
       -0.11247079 0.05390436 -0.14822467 0.05594063
000070 0d 77 3f 3d ed 5d 2d bd 86 31 b2 bd 2a 2c b6 ba
       0.046744395 -0.042325903 -0.08700852 -0.001389866
000080 1d 39 03 bc 30 ef 0f bd 69 8c 91 bd fd a7 0a 3c
       -0.008009222 -0.035140216 -0.07106859 0.008462903
000090 99 4a df 3d 92 e2 73 bd 1e 9a f3 3b 8f 1a 0e bd
       0.109029 -0.059542246 0.0074341437 -0.034693297
0000a0 86 62 60 bb 85 14 5a bd ba 2c 8e bd 78 ac b1 3d
       -0.0034238412 -0.053242225 -0.06942125 0.08675474
0000b0 7c 98 eb 3d 6d f1 31 3d 13 5e 0d 3d 50 42 8f bd
       0.115036935 0.043443132 0.034513544 -0.0699507
0000c0 fe 4c e8 3d 56 73 ea bc b9 02 16 3e 93 c7 51 bd
       0.1134281 -0.02861945 0.14649476 -0.05121572
0000d0 da 7d c8 3c 40 13 a9 bd d8 83 9d 3d 8b 91 a9 bc
       0.024474073 -0.08255625 0.07691163 -0.020699283
0000e0 f9 11 a5 3d e4 00 8a 3d 1d c1 eb 3c 7e d0 7e 3d
       0.08060069 0.06738451 0.028778607 0.062210552
0000f0 67 18 bb bc a0 50 cb bd 43 cd 11 3d f0 eb ab bc
       -0.022838784 -0.099274874 0.035596143 -0.020986527
000100 1d a6 12 bd 89 a5 ef 3d b3 ff 87 3d 8b 93 c5 bb
       -0.03580295 0.11701495 0.06640568 -0.0060295514
000110 7f 44 01 3e 98 cf 32 bd 46 0d 6b 3d c8 ee 27 3d
       0.12623785 -0.043655008 0.057385705 0.040999204
000120 b0 2e 58 3c 62 67 05 3e ec cb 36 3d ab b2 f1 3d
       0.013194725 0.13027719 0.04462807 0.11801656
000130 d3 39 94 bd e0 ef 15 bd bb a7 08 be d7 32 16 be
       -0.072375916 -0.036605716 -0.13345234 -0.14667831
000140 2d c1 9f 3d 22 70 5d bc 31 2c 03 bd 8a 3b 0b 3e
       0.07800517 -0.013515504 -0.032024566 0.13596931
000150 26 5e 62 bd ae 64 16 3d 79 37 ed bd 3a 02 db bd
       -0.05526557 0.03671711 -0.11582846 -0.10693784
000160 3e 0c b4 bd ff dd c4 bb c9 c7 0e 3d 15 06 51 3d
       -0.087913975 -0.0060079093 0.0348585 0.05103119
000170 0c 8f 7f bb e4 eb 18 bd 3f a5 41 bd ba f4 c4 3d
       -0.0038995175 -0.037334338 -0.04727673 0.096169904
000180 05 8e 09 be ed 21 c8 bc 71 c4 68 bd ef 0a 6b bc
       -0.13433082 -0.02443024 -0.056827966 -0.0143458685
000190 47 51 e6 bd 3e 90 8c bd fc 27 ac bd 76 86 d8 3d
       -0.11245971 -0.068634495 -0.08406064 0.105725214
0001a0 0f 25 22 bd aa e6 e3 3d b2 42 6a bd d7 cd a4 3d
       -0.039586123 0.1112798 -0.05719251 0.08047073
0001b0 48 bd 65 3d 2e 7a ef bc d8 8b 80 bd 6e 6a 2e bc
       0.056088716 -0.029233065 -0.06276673 -0.010645492
0001c0 10 26 9d bd 77 c9 33 3b 49 ce ab 3c 04 d9 d0 3b
       -0.076732755 0.0027433315 0.020972388 0.0063735265
0001d0 fd 00 82 3d 33 38 45 be c7 b8 b0 bc a1 f0 15 bd
       0.06347845 -0.1925972 -0.021572484 -0.036606435

fc.3.weight f4 [84, 120]
000000 3e 2c 2a be de 8c 4e 3f 68 0f 70 3e 8c bf 15 be
       -0.1661844 0.80683696 0.23443377 -0.1462385
000010 5f 25 cc 3e 5c cc a7 3e 92 31 b0 be ef 03 16 3f
       0.39872262 0.327731 -0.3441282 0.5859975
000020 ec e8 00 3f e0 e7 66 3c 9d 44 c7 3d 71 7f cf be
       0.5035541 0.014093369 0.09729884 -0.40526918
000030 a8 29 c5 be 34 98 0d 3e f6 f7 25 3e ba 62 83 3e
       -0.38508344 0.13827592 0.16207871 0.2566126
000040 7b 2e d9 3d 59 bf 63 be f5 ab 30 bf 4e f3 c5 3c
       0.106045686 -0.22240962 -0.69012386 0.024163868
000050 90 d4 98 be cd 8d 57 bd 7a 24 32 3e 04 5f fa be
       -0.29849672 -0.052625466 0.17396727 -0.48900616
000060 a7 92 ff be 8b a7 8d bd 5c 86 cc bd 6f ed 48 bf
       -0.49916574 -0.06916722 -0.099865645 -0.78487295
000070 20 46 04 3e b3 93 3c 3d 2a d4 73 be 3a eb 40 3d
       0.12917376 0.046039294 -0.23811403 0.04709933
000080 90 58 5a be 16 e6 9f be f3 4e c2 3e a0 f4 d0 be
       -0.21322846 -0.3123023 0.37950858 -0.40811634
000090 eb 22 88 bc 29 3e 43 bd db 5a 8a be a1 fc c6 be
       -0.016618213 -0.047666702 -0.27022442 -0.38864616
0000a0 7b 80 84 3c 90 d5 70 bd e9 49 0f bf 0d 5d 1c 3e
       0.016174546 -0.05879742 -0.5597215 0.15269871
0000b0 5b 72 1e bf fd 33 a8 be 3d 21 18 3d 9d 85 38 be
       -0.6189324 -0.32852164 0.037141073 -0.1801972
0000c0 11 e7 e4 3c 82 98 17 bf 1f 4a d1 3e ea b2 61 be
       0.027942212 -0.59217083 0.40876862 -0.22040907
0000d0 03 31 d6 3e a0 88 65 bf f9 fc 3b 3c 62 1a 6d 3c
       0.41834268 -0.896616 0.011473888 0.014471622
0000e0 94 c5 53 3e 5c 53 1a bf 5a 6a 0d be 4f 87 99 3d
       0.20680839 -0.60283446 -0.13810101 0.07496511
0000f0 b5 04 ff be 14 01 23 3f f4 4e 85 be 1b eb aa 3e
       -0.4980828 0.6367352 -0.260368 0.33382496
000100 3f cf 71 be e6 d8 18 3d 4b d5 05 3f b2 3c 18 bf
       -0.23614214 0.037316225 0.52278584 -0.59467614
000110 48 51 e6 3e 16 66 4e bd c3 75 b2 3e 98 53 df bd
       0.44983888 -0.050390325 0.3485547 -0.10904616
000120 54 e0 fc be 0e 25 83 3e f8 c8 b6 be cb 00 a0 3e
       -0.493899 0.25614208 -0.35700202 0.31250605
000130 07 b9 da 3e e3 c2 a7 bd 8a 36 e9 3e fe 33 f1 be
       0.4271929 -0.081914686 0.45549423 -0.4710998
000140 9f 55 97 3e 0e 25 02 3e c4 a8 d3 be 4e 2f 6b be
       0.2955751 0.12709448 -0.41339695 -0.22967264
000150 34 9c d7 be d8 fd be be f1 4b 1a 3f 27 f5 94 be
       -0.4211136 -0.37303042 0.6027213 -0.29093286
000160 1c 99 22 3f c8 94 00 3f cb e2 67 3f 84 eb 82 bc
       0.63514876 0.5022702 0.90580434 -0.015981443
000170 df bc 23 be 03 3b 43 3e 79 af 78 bf 45 42 b4 be
       -0.15990017 0.1906548 -0.9714275 -0.3520681
000180 59 f9 81 be 14 3e b1 3e 66 1d 81 3d 11 bb 57 3e
       -0.2538555 0.34617674 0.063044354 0.21067454
000190 33 cc bc be 2b 22 aa 3e 45 9f 61 bf ac 48 0c bf
       -0.36874542 0.33229193 -0.8813365 -0.5479839
0001a0 30 08 c3 3e 68 92 0d 3c c5 86 80 be 9b cd 8f 3e
       0.38092184 0.008640863 -0.2510282 0.28086552
0001b0 48 b9 04 3f d8 ba 35 bf fa ef bd 3e 65 85 6d 3e
       0.51845217 -0.70988226 0.3709715 0.23195417
0001c0 3e 60 ee be a6 49 a1 bf 25 50 de bd 8d 07 01 3f
       -0.46557802 -1.2600601 -0.1085513 0.50402147
0001d0 64 14 92 3e 06 5a a7 be 6e 0d 08 3e c1 85 77 be
       0.28531182 -0.3268587 0.13286373 -0.24172117
0001e0 69 0b f4 be 4b 33 56 bf f6 be 75 be 38 19 a7 be
       -0.47664955 -0.83672017 -0.23998627 -0.32636428
0001f0 73 35 af 3d 1a 36 bf 3e 0d a1 42 bd 96 c9 16 be
       0.085551165 0.37345964 -0.04751687 -0.14725336
000200 c2 23 2e 3e 97 0f f8 be c0 fb e9 bd d5 6d ce 3e
       0.17005828 -0.48449394 -0.114249706 0.4031817
000210 34 ec 7a 3e 4d 54 79 3e 88 8e 79 3e f7 5d 28 3e
       0.24504167 0.24348564 0.24370778 0.16442095
000220 15 c4 26 3f 7f 97 1c 3e da 8e 21 bf 8d 64 90 be
       0.6514295 0.15292166 -0.631086 -0.28201714
000230 fe 03 e4 be 14 0f 27 bf 9b 20 aa 3e 88 b4 06 be
       -0.44534296 -0.6525738 0.33228 -0.13154805
000240 5f 9c ca be e1 f9 08 3e 69 bb a5 3e 24 ea f8 be
       -0.39572427 0.13376571 0.32369545 -0.48616135
000250 bf 45 88 bf 86 27 f6 be 54 36 d1 3e 7d 10 1a bf
       -1.0646285 -0.4807703 0.40861762 -0.6018141
000260 cf df 04 bf 7e 3a a9 3e 98 cf 06 bf 5a 28 55 3e
       -0.51904005 0.33052438 -0.5266051 0.20816174
000270 03 16 55 be 7b 41 3d 3e ca 83 01 3f 5c 79 15 3e
       -0.20809178 0.1848201 0.5059172 0.14597076
000280 f0 b0 22 3f 6f e3 a1 3e 79 3c 06 3f ec dc 38 be
       0.63551235 0.3161883 0.52436024 -0.18053025
000290 6f 9d 8e bf d4 b2 22 bf 90 eb 11 bf 80 e1 49 bc
       -1.1141795 -0.6355412 -0.57000065 -0.01232183
0002a0 ff 02 c5 bc d8 7d 16 3d 45 91 d7 be 20 28 32 3e
       -0.02404928 0.036741108 -0.4210302 0.17398119
0002b0 99 58 16 be c3 2d a6 bd e9 14 cf be e6 e7 02 bf
       -0.14682235 -0.08114197 -0.4044564 -0.511351
0002c0 c1 3f d3 3e 37 26 1f bf bb 50 31 3e cb 83 54 be
       0.41259578 -0.62167686 0.17315952 -0.207534
0002d0 bc fc 02 bf e8 b5 9c bd 46 71 4b be 5b 15 6d 3e
       -0.5116689 -0.07651883 -0.19867429 0.23152678
0002e0 4e 9a af 3e ca 5d 36 be 13 7e 9a 3d b2 bc 1c 3f
       0.34297413 -0.17809215 0.07543578 0.61225426
0002f0 75 69 4f 3c 90 3d 97 3e 99 70 9a be 46 95 12 3e
       0.01265942 0.29539156 -0.3016403 0.14314756
000300 6b 94 9c bd 36 0b b4 3e cb c9 ca ba c9 0e 0e bf
       -0.07645496 0.35164803 -0.0015471516 -0.5549131
000310 c2 1a c7 bd be 31 f9 3e 9f 3d 29 bd be ac 06 3f
       -0.097219005 0.48670763 -0.041318532 0.52607334
000320 da 59 d4 bc 7f 36 d1 3e f4 72 d1 3e 14 20 05 bf
       -0.02592175 0.4086189 0.40908015 -0.5200207
000330 fc 2a a6 3e a4 77 f4 bd c7 ad 05 3f 62 0e 0a be
       0.3245467 -0.11936882 0.5221829 -0.13482049
000340 75 dc 78 3d af 13 52 3e 04 b3 86 be 6e 44 93 3e
       0.06075712 0.20515321 -0.26308453 0.28763145
000350 b4 4d 0e 3f b6 b9 2b bd 1a ff 8e 3e 65 b2 ae 3e
       0.55587316 -0.041925155 0.27929002 0.3412048
000360 69 39 74 be b7 c1 41 be b0 3f 43 bf a7 27 c1 3d
       -0.23850025 -0.18921553 -0.76269054 0.09431391
000370 aa 00 8b be 6b b9 83 3f 5c 5c ce 3e f8 36 22 be
       -0.27148944 1.029096 0.4030484 -0.15841281
000380 5c 9e 40 3f 57 16 d3 3d b0 c4 0f 3f 50 bf 4b be
       0.7524164 0.10306995 0.56159496 -0.19897199
000390 c1 df 9c 3d 11 02 af bd 6e be ef 3e 03 c1 ed 3d
       0.07659865 -0.08545316 0.46824974 0.1160908
0003a0 1f 87 04 3d 0f 98 73 3e db 4d e9 3d ce 39 09 bf
       0.032355424 0.23788475 0.11391803 -0.5360383
0003b0 5e d6 65 bd aa 72 1e 3e 7a bd e9 be 54 fd ca 3e
       -0.05611264 0.15473428 -0.45652372 0.396464
0003c0 8c 14 b0 be 02 49 41 3f f2 82 78 bd 51 e2 5b 3e
       -0.34390676 0.75502026 -0.060671754 0.21473052
0003d0 d9 9a bb 3d db ba da 3e d5 7e ef be 93 d3 a5 be
       0.09160394 0.42720684 -0.46776453 -0.3238798
0003e0 7b 46 ab 3d fa b1 d5 be aa 87 2f 3e cc 06 b6 3e
       0.083630525 -0.41737348 0.17141595 0.3555206
0003f0 f5 2f 1a be 89 12 81 3e df 84 98 3e fc 42 38 be
       -0.15057357 0.25209454 0.29788873 -0.17994303

fc.3.bias f4 [84]
000000 3f 3f 04 3e e4 66 da bd ea 4b 3b 3d 3f c1 98 3d
       0.12914751 -0.10664156 0.045726694 0.07458734
000010 3c 45 35 3c 0c 68 dc 3c 56 52 f8 bc 49 63 54 bc
       0.01106387 0.026905082 -0.030312698 -0.012963125
000020 c3 62 34 bd a4 de 2a bd 26 78 88 bd 3a 4e ba 39
       -0.0440395 -0.041716233 -0.066635415 0.00035534968
000030 9a 2a 8f bc d9 94 29 bd ef 51 a8 3d 67 35 80 3d
       -0.017476369 -0.041401718 0.082187526 0.06260186
000040 af 60 80 3d 7f 6d ad bb 04 51 27 bd 4d 6f ab bd
       0.06268441 -0.005292594 -0.040848747 -0.08370838
000050 c8 91 a6 bc c6 61 cb 3c d4 cf 3b 3b 53 fa ea 3b
       -0.020333186 0.024826895 0.002865781 0.0071709543
000060 21 55 36 bd 32 88 97 3c d7 3e fd 3c 2e 0d 2e bc
       -0.04451478 0.01849756 0.030913753 -0.0106232595
000070 44 47 5b bd 6c e0 97 3d 72 5d 32 bc 3a a2 a4 3d
       -0.05353476 0.07415852 -0.010886537 0.08038755
000080 f5 62 cd 3d 74 3f 01 3e 2d ac 46 bc d8 40 1e 3d
       0.1002864 0.12621862 -0.012126011 0.03863606
000090 73 8f 65 3b 7e 93 58 3c d2 e9 ad bd ee cb 10 3c
       0.003502813 0.013218759 -0.08491863 0.008837683
0000a0 79 3e ee bd 42 aa d8 3d df 50 af bc 4d 0f 82 3d
       -0.116330095 0.10579349 -0.021400867 0.06350575
0000b0 d1 f9 57 3d 28 13 b6 bd 15 33 3b bd 2e 90 3d 3d
       0.052728478 -0.088903725 -0.045703012 0.04628008
0000c0 65 67 ec 3c be c9 3a 3d d1 7f a8 bc 6d b0 b0 bd
       0.028857896 0.045602553 -0.02056876 -0.086274005
0000d0 7d 62 b9 3d 92 f3 f2 bb 66 30 ea 3c d2 1e 70 3d
       0.09051988 -0.0074142898 0.028587531 0.058623143
0000e0 62 52 50 3c cd c3 12 bd d3 f8 8c 3d 86 62 aa 3d
       0.012714954 -0.03583126 0.06883397 0.08319573
0000f0 a7 fb 87 bc bb 68 70 3d 1a 6b 83 3d a9 ef 98 3d
       -0.01659949 0.05869363 0.064169124 0.074675865
000100 47 02 1f be f9 6b 25 bc 88 2e 1d bd 98 5a 8b 3d
       -0.15528212 -0.0100965435 -0.038374454 0.06804389
000110 a9 13 a3 3b 0f cb 8d 3d aa c4 81 3d 75 15 13 bd
       0.004976709 0.06923496 0.06336339 -0.035909135
000120 5f 19 1f 3d 00 bb 36 3d 63 c4 53 3a c9 3b a4 bd
       0.038842555 0.04461193 0.0008078275 -0.080192156
000130 5e 9b 01 bd b9 f9 82 bd 39 cc 0a 3d 77 07 11 3d
       -0.03164231 -0.06395287 0.03388617 0.03540751
000140 0a 49 d0 3d c3 0f bd bd aa 87 4e bd c0 4c ee 3c
       0.10170181 -0.09231522 -0.050422348 0.029089332

fc.5.weight f4 [10, 84]
000000 7e 44 50 bf 77 2e 39 3e fe 55 95 bf b9 40 29 bf
       -0.8135451 0.18084131 -1.1666868 -0.66114384
000010 44 ca b5 3e e6 14 d0 3e fb f1 4c bf 57 a4 03 3f
       0.3550588 0.40640944 -0.8005673 0.5142264
000020 df f5 96 bf 34 8a 20 3e 5a 8e 9e 3e da 5e 17 3e
       -1.1793784 0.1567772 0.3096798 0.14782277
000030 c5 70 ac bf 95 19 b2 3e f7 e6 2e bf ec d3 10 3f
       -1.3471915 0.34785143 -0.68321174 0.5657337
000040 36 e5 4b 3e a9 18 93 bf 9f 48 bc 3e 0c 99 23 3f
       0.19911656 -1.1491901 0.36774155 0.63905406
000050 28 62 97 bf 50 3d 74 bf 2c b3 49 3f c4 20 1a bf
       -1.182683 -0.95406055 0.7878902 -0.60206246
000060 ce 4c 01 3f cd d5 66 be d3 6c 92 bf b6 0f eb be
       0.5050782 -0.22542496 -1.143946 -0.45910424
000070 f5 31 da 3e 0f 50 10 3f 3b d8 e0 3e 15 5c 42 3e
       0.4261624 0.5637216 0.4391497 0.18980439
000080 4d 86 37 3e dd 73 14 bf 91 8f 59 bf fe 0d 6f 3d
       0.17922325 -0.57989293 -0.8498469 0.058362953
000090 34 49 c0 bf 4d ba 82 3d 4e 13 0a 3f 06 cc 0c bf
       -1.502234 0.0638319 0.53935707 -0.54998815
0000a0 e8 2f 2c 3f ea fc 77 bf 2e b3 c0 3d fe 00 66 bf
       0.672606 -0.9687029 0.09409176 -0.89845264
0000b0 f2 42 6e 3e e2 69 9f 3e 95 c9 dd be 22 c2 1e bf
       0.23267725 0.3113547 -0.43317857 -0.62014973
0000c0 b9 f7 91 3e 4e 9e 04 3e f0 c0 b6 be 18 93 34 3e
       0.2850931 0.12951013 -0.35694075 0.17634237
0000d0 ce 5a 23 3f ce 2c 84 bf 0f d7 e4 3e 91 95 a2 3e
       0.6381043 -1.0326173 0.44695327 0.31754735
0000e0 bb 24 a5 bf 12 e2 d2 3e 5d 6a c0 3e 36 5d 59 bf
       -1.2901834 0.41188103 0.3758115 -0.84907854
0000f0 ac 8d f9 be 09 18 36 bf ba 78 6b 3f b4 00 4d 3e
       -0.487409 -0.71130425 0.9198109 0.200198
000100 73 32 30 3e 0e b3 96 bf ed d4 68 3e 56 97 9a bf
       0.17206745 -1.1773393 0.22737475 -1.2077434
000110 53 8a 94 be 0c e7 3f 3f 34 ed 68 bf 7e 99 37 bf
       -0.29011783 0.74961925 -0.90986943 -0.71718585
000120 25 62 f8 be b6 b5 a5 be 21 a0 a1 3e 39 a5 93 3e
       -0.48512378 -0.32365197 0.3156748 0.28836992
000130 a7 a0 14 3f 2a 9d 18 3f 7a 1f af 3e f6 8c 27 bf
       0.58057636 0.59614813 0.34203702 -0.65449464
000140 4a 26 3b 3e ea 50 10 3e 3a 63 97 3d b8 f1 c7 3e
       0.18276325 0.14093366 0.07391973 0.39051604
000150 23 5d f9 3e ac 10 8d 3e eb 4f cd 3e 19 11 dd 3e
       0.4870387 0.27551782 0.40100035 0.43177107
000160 cc c0 ce be 69 c3 3d bf 6b 48 c2 3e 3f 1f 58 bf
       -0.40381467 -0.741263 0.37945876 -0.8442268
000170 15 cb 4e 3f 5c 79 3c bf d3 37 e3 3e 4c 8b bf 3e
       0.8077863 -0.7362268 0.44378528 0.37410963
000180 8a be 64 3e eb d9 24 bf 31 b8 e8 3e 4a cf d8 bd
       0.2233831 -0.64395016 0.45453027 -0.10586412
000190 d6 5e e8 3e d3 dd 5d bf 4a 74 12 be 66 00 31 bf
       0.45384854 -0.866666 -0.14302173 -0.6914123
0001a0 6a 6a 21 3f fc ba cc be f0 08 38 bf ef 73 d6 be
       0.63053 -0.39986408 -0.7188864 -0.41885325
0001b0 ba e4 ee 3e 75 1d 8d 3e ef 0f 96 3e 77 51 c0 3e
       0.4665888 0.27561536 0.2930903 0.37562153
0001c0 9c 5f c9 bd 55 a3 a7 bd 87 1c a2 be 51 22 51 bf
       -0.09832689 -0.0818545 -0.3166239 -0.8169299
0001d0 ca 0d 93 be 39 b4 9b 3e d9 cc d1 3e 4e 96 8c be
       -0.28721458 0.30410936 0.409766 -0.27458423
0001e0 ec ec b7 3e 2b 50 b9 3e 2a 13 e0 3e c0 5a 03 3f
       0.35922945 0.36193976 0.4376462 0.5131035
0001f0 1d ff f1 3e fe a2 ea bd bd f4 13 bf db a6 3d bf
       0.47264948 -0.114568695 -0.57795316 -0.74082726
000200 03 54 16 bf dd 1d 0a bf 54 de 14 bf d8 13 e6 be
       -0.5872194 -0.5395182 -0.58151746 -0.44937015
000210 63 7e 92 be bd 32 4e bf 27 e4 cf 3e e4 21 75 bf
       -0.2861205 -0.8054617 0.40603754 -0.9575484
000220 58 c7 bd be f6 cc ec 3e 7c 96 d0 3e 82 93 c2 be
       -0.3706615 0.46250123 0.4073981 -0.38003165
000230 ea c5 29 bf 88 6b 45 3f 73 1f 55 bf e6 c8 79 3e
       -0.6631762 0.77117205 -0.8325111 0.24393043
000240 fa b6 98 3e 21 87 d8 3e e6 0e 4d 3f 5a 14 c1 3e
       0.298271 0.42290595 0.8010086 0.3771084
000250 3e 62 4f bf f5 7a dc 3e 1d ab 20 bf ed 0a 96 3e
       -0.8100928 0.4306256 -0.627611 0.2930521
000260 1f 6d 4b 3e 70 47 d7 3e 3f d0 f9 3d 15 be 89 3e
       0.19865845 0.4204669 0.12197923 0.26902834
000270 0c e6 5a bf b5 37 4e bf c0 22 01 bf a9 eb 3e bf
       -0.85507274 -0.8055375 -0.5044365 -0.7457834
000280 89 04 b0 bd 1a c1 32 bf d6 2d 96 bf fc 4c a6 3e
       -0.08594615 -0.698259 -1.1732738 0.3248061
000290 6b 67 6a bf d1 8f 80 3e 31 df e8 3e de 4c 5b be
       -0.91564053 0.25109723 0.45482782 -0.21416041
0002a0 1f ab 17 3f 6f a1 7c bf f2 04 98 bf 80 e1 2c bf
       0.59245485 -0.9868383 -1.1876509 -0.67531586
0002b0 bb eb a2 bf 1d cd 1b bf 83 b6 8e be 0d d7 a8 3e
       -1.2728189 -0.60859853 -0.2787362 0.3297657
0002c0 6c be 0c 3f 41 d2 d1 3e 6c cc f0 bc 08 c5 0a 3f
       0.5497806 0.40980724 -0.029394351 0.54206896
0002d0 25 3a a0 bd ba 54 d2 3c 9c 0e 6d bf 52 fe 4a 3f
       -0.0782359 0.025675166 -0.9260042 0.7929431
0002e0 48 7d 21 bf 0c ab 48 bf d2 40 d1 be 5e 11 e5 3e
       -0.6308179 -0.78385997 -0.40869766 0.44739813
0002f0 b4 83 a5 bf d4 b5 ad bf 70 db 2d 3f aa 78 9c 3e
       -1.2930818 -1.3571115 0.6791296 0.3056081
000300 68 8e c5 3e 1a f2 b1 3e f3 2b 99 bf 7e 37 2a bf
       0.3858521 0.3475502 -1.1966537 -0.66490924
000310 97 f1 3b 3e c3 98 d1 bf 3e 9d 5f bf 48 9c bb 3d
       0.18353878 -1.6374744 -0.8734931 0.09160668
000320 7c af c6 3e 1d 28 05 3f f1 f3 03 3f b3 63 d8 3e
       0.3880576 0.52014333 0.515441 0.42263564
000330 30 35 a1 3e e4 34 aa 3e 74 d7 4c 3e 96 97 10 3f
       0.3148589 0.33243477 0.20004064 0.564813
000340 04 13 75 bf ee c2 cc 3e 8d 3d 0d bf b6 8e 05 3f
       -0.9573214 0.3999247 -0.55172044 0.52170885
000350 b2 bc 2d 3c 50 f9 81 bf c8 9f 91 bf 74 52 c2 bd
       0.0106040705 -1.0154209 -1.1376886 -0.09488383
000360 63 38 b1 3e 62 c2 45 3e ac 8a 78 3d 69 ba b2 3e
       0.34613332 0.19312432 0.060679123 0.34907845
000370 1e b1 02 3f 75 78 ef 3d e8 0f 9a 3e 91 89 98 bf
       0.5105151 0.11692897 0.3009026 -1.1916982
000380 e5 98 1a 3f 6f 90 68 bf ac e5 cb 3e b8 b1 a3 bf
       0.6038955 -0.9084539 0.39823663 -1.278861
000390 9d 82 6d bf 68 92 4a bf d2 3b 36 3f 02 af b8 bc
       -0.92777425 -0.7912965 0.7118503 -0.022544388
0003a0 27 4b 32 3d 9c 34 bf 3e 9d 38 c2 be 53 43 c2 3d
       0.043528702 0.37344825 -0.37933818 0.09485497
0003b0 26 76 d5 3e 88 6b d6 3e 1e 8c ea 3e cf 7e c8 be
       0.41691703 0.41878915 0.45810026 -0.39159247
0003c0 c6 54 02 bf 45 75 09 bf cc c7 a3 3d bb 2c 89 3e
       -0.50910604 -0.53694564 0.079970926 0.2679194
0003d0 f9 1c d6 3e df 3c 61 3f fa 3e 1d 3f bb d7 03 3f
       0.4181898 0.87983507 0.6142422 0.51501054
0003e0 26 de 3e 3e 98 5c 74 3d 43 dc 23 bf 6e 86 38 bf
       0.1863943 0.059658617 -0.6400797 -0.72080123
0003f0 7a 42 25 3f ef 90 12 3f 1f 4e e3 3e bd d9 01 bf
       0.6455456 0.572524 0.4439554 -0.5072287

fc.5.bias f4 [10]
000000 a4 1b b9 3d d8 be d9 3c 44 a6 39 3c ea 25 93 bd
       0.09038475 0.02658026 0.011331145 -0.07184966
000010 00 c8 71 bd 13 34 2f ba 88 fc a9 3d 27 5f b6 38
       -0.059028625 -0.000668348 0.0830012 8.69616e-05
000020 33 de d4 bd fa 9a cb bd
       -0.10393944 -0.09941669
